Control_Verification/cartpole/best.pth (torch, 79351 bytes, 11 tensors)

controller.x_equilibrium f4 [4]
000000 00 00 00 00 00 00 00 00 00 00 00 00 00 00 00 00
       0.0 0.0 0.0 0.0

controller.layers.0.weight f4 [32, 4]
000000 a0 bc 34 3e d8 a8 17 bf d0 eb 44 be 65 10 1f bf
       0.1765008 -0.5924201 -0.1923058 -0.6213439
000010 98 ab 0a 3f 8b 81 ae be 06 4f 10 bd 16 ae 7b be
       0.5416808 -0.34083208 -0.035231613 -0.24578127
000020 4d 76 5d 3e d2 86 cb 3e 0e d7 f5 3e 7e ef a3 bb
       0.2162716 0.39751297 0.48015636 -0.005002915
000030 63 b0 c0 3d d7 2c 5e 3e 98 cf c1 3e 40 74 7e be
       0.09408643 0.21696793 0.37853694 -0.24849033
000040 08 47 81 bf 39 de 01 3e bd c5 0a bf 23 f9 c3 b8
       -1.0099802 0.12682427 -0.54207975 -9.34473e-05
000050 ba f0 d6 3c a0 d8 33 b5 31 f1 87 be d5 41 7e 3e
       0.026237834 -6.699793e-07 -0.26551202 0.248298
000060 df cf 4e 3f 8e a2 e7 3e d5 bd c3 3c 8c 11 a0 be
       0.80785936 0.45241207 0.02389423 -0.31263387
000070 f1 39 9f be 94 17 24 3f cb c2 b0 bd 36 2a 53 3e
       -0.31098893 0.6409848 -0.08630904 0.20621571
000080 9c 3d d4 be 90 56 c2 3e fd d9 bc bd 8b ad 15 bd
       -0.41453254 0.37956667 -0.092212655 -0.036542457
000090 f1 9d a9 3b eb a8 91 be eb 30 dd 3e fc 02 36 bf
       0.005176299 -0.28449187 0.43201384 -0.71098304
0000a0 d2 c3 16 3e c0 74 cd 3e d7 8c 09 bd 5d 7c 1c 3f
       0.14723137 0.40128136 -0.03358158 0.61127263
0000b0 42 90 2d be f2 fb 3d bd c2 ce 19 bf c9 a9 48 bf
       -0.16949561 -0.046382852 -0.6008111 -0.7838407
0000c0 98 8f 4b bf b0 d8 51 be b9 c8 b1 be 27 41 1f 3e
       -0.7951598 -0.20492816 -0.34723452 0.15552197
0000d0 58 b4 3f bf 7c 88 92 3e 8e b7 8f be 55 e8 60 3e
       -0.7488456 0.28619754 -0.2806973 0.21963628
0000e0 bc dc d5 3d c0 36 ce 3e 36 76 0a bf f1 51 a2 3e
       0.10442492 0.40276146 -0.54086626 0.3170314
0000f0 4a 9f 79 3d 7a e9 83 3e a6 73 ad be be 8a a9 b7
       0.060942926 0.25764066 -0.33877295 -2.0210977e-05
000100 0e dc 9c 3d 4a 18 f4 be c4 4a d3 bd b6 05 3c 3e
       0.076591596 -0.4767478 -0.10316995 0.18361554
000110 46 af 50 3e e1 26 59 bf 7b 7d d3 3e 82 36 de 3e
       0.20379362 -0.8482495 0.41306672 0.4340096
000120 e0 e1 86 3e 68 34 7b b4 12 92 2b 3f 7a 35 3c 3e
       0.26344204 -2.3395262e-07 0.6701976 0.18379775
000130 45 5f 8c 3c 18 67 65 bf 10 42 33 3e 9b 33 a0 bd
       0.017135272 -0.89610434 0.1750567 -0.07822343
000140 b3 b2 5c 3e b3 6a 16 3f 28 e6 02 bf a7 a5 2c 3f
       0.21552543 0.5875656 -0.5113244 0.67440265
000150 0c 2d be be bf cf 0f 3f 8e 38 11 be e7 5d cb 3d
       -0.37143743 0.5617637 -0.1418173 0.0993002
000160 aa dc a4 be 6a 1e 11 bf 18 f2 3b 3d 3f 2c 98 3d
       -0.32199603 -0.56687033 0.045885175 0.07430314
000170 f3 9d 35 be 13 02 cf 3e 55 6f fb be 04 7b a5 3e
       -0.17736034 0.4043127 -0.49108377 0.32320416
000180 7f 42 3b 3f ab 00 84 3e f1 2d c3 3d 80 f4 eb bd
       0.7314834 0.2578176 0.09530247 -0.11521244
000190 98 13 4a be 97 7c 77 3e 77 22 c7 bd b0 00 2b 3f
       -0.19734037 0.24168621 -0.097233705 0.66797924
0001a0 12 93 8e 3b c7 40 31 3f a0 14 77 3e 9d a7 2c be
       0.0043510282 0.6923947 0.24128962 -0.16860814
0001b0 60 23 86 be 2a 51 71 3f ff e9 14 be 99 99 b6 3e
       -0.26198864 0.9426447 -0.14542387 0.3566406
0001c0 5b a7 e0 3e 17 5e b2 be e7 ba 17 3e a1 84 22 bd
       0.43877682 -0.3483741 0.14817391 -0.039677266
0001d0 0f 9a 80 3e 69 21 43 bf e7 ee d7 be 3e a8 8d bd
       0.25117537 -0.76222855 -0.42174456 -0.06916855
0001e0 78 aa e4 3e 34 db 0c 3f 54 9c 66 3e a8 5d 32 be
       0.44661307 0.5502198 0.22520572 -0.1741854
0001f0 20 fc b9 3e 99 dd 93 3d 3c 2e 2a 3e 9a cc f4 3e
       0.3632517 0.07220001 0.166192 0.4781235

controller.layers.0.bias f4 [32]
000000 26 8e 44 bd 8f 4e 2b bc a4 f9 27 3e 12 92 cc b5
       -0.047987126 -0.010455742 0.16403824 -1.5241696e-06
000010 09 db 37 bd 2b dd 73 bd ef 41 22 3c 7e 71 c2 3b
       -0.044886623 -0.059537094 0.009903415 0.0059339395
000020 00 90 a9 bd cf 7b 08 bd 77 9a 2e bc 00 1b 3d 3b
       -0.08279419 -0.033321198 -0.0106569445 0.0028855205
000030 1a a5 9d 3d 50 63 0e bd e6 b8 86 b4 2e 97 d0 35
       0.07697506 -0.03476268 -2.5093976e-07 1.5541207e-06
000040 ca a1 a1 bd 1e 66 2e be 3f 2e 85 3c b8 15 df bd
       -0.07892187 -0.17031142 0.016257403 -0.108928144
000050 57 12 c1 bc 93 9c 21 be 3f 55 e7 bd 96 06 5e 33
       -0.023568315 -0.15782385 -0.11295556 5.1694393e-08
000060 9b c0 b9 3d 06 1b d5 3b 6b 02 65 bc a4 98 b7 bc
       0.0906994 0.0065034656 -0.013977627 -0.022411652
000070 8a 29 4c be 05 c9 91 3d d9 2b 13 bd d7 9c 8d bc
       -0.19937721 0.071184196 -0.03593049 -0.017286701

controller.layers.2.weight f4 [32, 32]
000000 af 11 65 3e da e9 23 bc 6d c7 84 bd 2c 41 82 bd
       0.22370027 -0.010004485 -0.0648335 -0.06360087
000010 f3 22 68 3d 7f 69 45 b8 94 60 52 be 61 19 bc bd
       0.056673955 -4.706671e-05 -0.20544654 -0.09184528
000020 50 59 63 be 17 30 5a 38 b7 9f 8a bd 53 ed 74 3e
       -0.22202039 5.2020037e-05 -0.067687444 0.23918657
000030 1f c4 44 3e e2 a0 28 3d cd 64 0e be bb b2 4b b8
       0.1921544 0.041169055 -0.1390564 -4.8565427e-05
000040 89 2b 3e 3e 18 00 ab bd b3 43 21 be dd 82 9e 3e
       0.18571295 -0.08349627 -0.15748481 0.30959216
000050 65 67 a4 bd 25 bf b2 bd 9c 75 95 3d 80 74 35 be
       -0.080275334 -0.08727864 0.07297823 -0.17720222
000060 2a 28 80 32 3f 00 6c bd f3 cd 99 bd 8d 33 b4 be
       1.4919426e-08 -0.057617422 -0.07509985 -0.3519558
000070 2f 29 72 3e 44 16 56 3e 06 91 92 be 96 f7 a2 bc
       0.23648523 0.20906931 -0.2862627 -0.019893449
000080 44 88 ea bd 5c a6 9a bd 6b 86 14 3e 84 16 e8 3d
       -0.11451772 -0.07551262 0.14504401 0.113324195
000090 93 6c f4 bd 18 d1 ce bd 8f d9 62 3d 19 09 f4 3e
       -0.119347714 -0.10098475 0.05538326 0.4766319
0000a0 f2 18 7a 3e 3a d3 2e bc 36 f8 94 3e 27 47 d8 be
       0.24423578 -0.0106704775 0.2909562 -0.42241785
0000b0 b9 91 6d be 0c 73 92 bd c7 f6 01 3d 72 04 88 bd
       -0.2320012 -0.0715085 0.031729486 -0.06641473
0000c0 3c 5b 3b be 32 49 e5 3d c0 1c a4 3d bd 6e cb be
       -0.18296522 0.111956015 0.08013296 -0.39732924
0000d0 fe 44 c3 3d e8 34 76 3d bc 8b b2 bd 71 c4 2f 38
       0.095346436 0.06010905 -0.087180585 4.19062e-05
0000e0 b7 37 b0 b6 03 a5 71 3e 2e ac 8b 3e 0f 5f f2 3e
       -5.251695e-06 0.23598103 0.272798 0.4733815
0000f0 8a ed ba be ae fb 85 be 44 cc b0 3e d2 e0 16 3d
       -0.36509353 -0.2616858 0.34530842 0.0368355
000100 2b 43 7c 3e 5d 3d e9 b6 03 b6 13 be 19 78 b1 bd
       0.24634998 -6.9510847e-06 -0.144249 -0.08665485
000110 b7 88 ba 3d 7e 80 60 3c c2 65 06 be d4 63 e2 bd
       0.091081075 0.01370251 -0.13124755 -0.11054197
000120 04 2c 8b bd 64 91 18 3e b1 bd ea bd 87 fa 94 3e
       -0.06795505 0.14899212 -0.11461962 0.29097387
000130 e3 6a 66 3e 77 46 17 3d b7 93 93 37 b4 9b 40 b8
       0.22501712 0.036932435 1.759255e-05 -4.5921377e-05
000140 34 95 82 3d f7 29 a4 bd 10 18 07 be 37 22 a4 3e
       0.063761145 -0.08015817 -0.13192773 0.32057354
000150 44 7c 1d be b7 4e 84 be aa 2b d9 3d 60 07 1c 3c
       -0.15379435 -0.25841305 0.106040314 0.009523243
000160 6c e6 fc bd d1 9d a4 bc ed f7 17 be 27 e9 22 bf
       -0.12348637 -0.020094784 -0.1484067 -0.6363701
000170 60 46 ad 3e 2b 99 88 3e db 95 a1 be 45 a8 ec bc
       0.33842754 0.26679358 -0.31559643 -0.02888883
000180 78 fb af 3b e5 7d 3d bd a0 c7 b0 bd 95 98 a9 bc
       0.0053705536 -0.04626264 -0.086318254 -0.02070264
000190 1a 8e 4d 3d 45 cb 8a 3c 23 bd e7 bd 55 01 cc be
       0.050184347 0.01694263 -0.11315372 -0.39844766
0001a0 6a c6 d8 b5 47 71 da 37 54 47 e3 bd df 2a 6e 3e
       -1.6151e-06 2.6040374e-05 -0.11097589 0.23258542
0001b0 e7 c4 6c 3e df 97 72 3d a6 54 2e be f7 af e3 3c
       0.23121987 0.059226867 -0.17024478 0.027793868
0001c0 2a 3e 24 3e 56 8d 73 38 81 ee 9f bd 98 50 b1 3e
       0.16039339 5.8067344e-05 -0.07809163 0.346318
0001d0 73 13 aa bd 51 20 68 be 8c ea 59 3d f7 54 4f b8
       -0.08304491 -0.22668578 0.053202197 -4.9431776e-05
0001e0 c6 ed f6 bd eb b6 aa bd eb 8b 1d be ca ad a7 be
       -0.120570704 -0.0833567 -0.15385406 -0.32749778
0001f0 63 83 77 3d ef af 85 3e 1f 91 9d be 81 88 9c bc
       0.060428035 0.2611079 -0.3077478 -0.019108059
000200 bb bf 90 3e 1c 91 6f b7 71 b6 24 be b0 6b 02 bd
       0.2827128 -1.4279296e-05 -0.16085221 -0.03184098
000210 16 b9 59 3d b6 8b 57 3d bf 38 2d be a2 4f af be
       0.053155027 0.052623473 -0.16916178 -0.34240443
000220 56 81 75 be 58 b4 e5 3d 10 a4 db bd 45 3c 80 3e
       -0.23975119 0.112160385 -0.10724652 0.25045982
000230 5e da 0b 3e bb b6 59 3d 60 7c 54 b8 ac 8c 4a b8
       0.13657519 0.05315278 -5.0660572e-05 -4.8291564e-05
000240 b7 90 5c 3d aa ff 85 bd a5 ef d0 bd 3e 3f 5c 3e
       0.05384895 -0.06542905 -0.102019586 0.215085
000250 46 6a 63 be 27 99 51 bd 87 9b bb 3d 81 5d b8 3b
       -0.22208509 -0.051171448 0.09160524 0.005626381
000260 66 54 e5 bc 72 e6 3d be f2 6a 0e be 33 92 f3 be
       -0.027994346 -0.18544939 -0.13907984 -0.4757248
000270 cb af 96 3e 43 37 92 3e 27 95 99 be 72 6d 60 b9
       0.29430994 0.28557786 -0.29996607 -0.00021403076
000280 c1 d2 9a 3e 73 5c 5e 3d 01 eb 33 be 5a 99 ff bd
       0.30238917 0.054287385 -0.17570116 -0.12480421
000290 c9 7a c6 3d 4f b6 3b 3d ce 55 5a be f7 57 57 be
       0.09691388 0.04582816 -0.21321794 -0.2102965
0002a0 1a ec 24 b6 7c 02 5a 38 be e4 9a be 8a 4e 96 3e
       -2.4575334e-06 5.1977564e-05 -0.3025264 0.29356796
0002b0 46 71 8e 3d a7 ae 8e 3b ec 92 41 b8 96 61 d3 bc
       0.06955199 0.0043543163 -4.6151617e-05 -0.025803369
0002c0 b3 0e 9a 3d 02 3c c6 bd 91 4d 42 bd e1 17 62 3e
       0.07522335 -0.09679414 -0.047437254 0.22079422
0002d0 56 60 e4 bd fb b1 49 be 8a 0d ac 3d ae 20 46 b8
       -0.11151187 -0.196968 0.0840102 -4.7237314e-05
0002e0 ca 73 93 35 69 38 b4 bd c2 ae 93 bd 16 23 eb be
       1.0986053e-06 -0.08799822 -0.07211067 -0.45925206
0002f0 bd be 97 3d 88 af 48 3e e6 d4 98 be 51 73 b1 bc
       0.07409427 0.1959821 -0.2984993 -0.021661432
000300 03 7a 89 3e c6 34 82 3c 45 95 31 be af 39 cb bd
       0.268509 0.015894305 -0.17342098 -0.09923112
000310 cc da 73 3e 88 c7 62 3d 3d 9c 75 be e4 5d 23 be
       0.23813933 0.05536607 -0.23985381 -0.15953785
000320 3b 1d 73 be f0 35 80 3d aa 82 e1 bd 28 9e ae 3e
       -0.2374162 0.06260288 -0.1101125 0.3410504
000330 ae 23 9d 3d 5d 3c 0d b8 1b ab 57 be 0e 5f 4c 3d
       0.07672821 -3.3673237e-05 -0.21061365 0.04989534
000340 d1 0c 6a 3d 54 c6 71 38 a8 dd 1c bd 76 a3 7e 3e
       0.05714113 5.7643585e-05 -0.038297325 0.24867043
000350 49 cb 29 be 41 dc 8d be 3d 69 0c 3e de 9b ed bc
       -0.16581453 -0.27707103 0.1371202 -0.029004987
000360 59 41 20 b6 51 7f c7 bd 92 d1 55 be ab 15 14 bf
       -2.3879895e-06 -0.097410806 -0.20880726 -0.5784556
000370 fc b6 5e 3e fb d6 c6 3e f2 4d ad be a6 56 c4 bd
       0.2174949 0.38835892 -0.3384853 -0.095868394
000380 09 ca 9d 3e 6f 28 7d 3d d1 cf 2b be 27 10 0f be
       0.30818203 0.06180614 -0.16778494 -0.13971005
000390 a7 ec ae 3c ad 4f 73 bc 01 82 7a be 19 bc 2f be
       0.021353079 -0.014850539 -0.24463655 -0.17161597
0003a0 7d f9 63 be 26 74 20 3e 9c ba a0 bd 17 f2 56 3e
       -0.22263141 0.15669307 -0.07848093 0.20990787
0003b0 6f 05 9f 3d 97 b6 55 3d f4 4b cc b7 59 bf 4d b8
       0.07764708 0.052176084 -2.4354063e-05 -4.9054015e-05
0003c0 84 37 52 3d ca f3 27 bd 08 b5 bf bd 2a 56 a8 3e
       0.051322475 -0.04100398 -0.09360701 0.32878238
0003d0 c2 9a 1a be 65 e2 56 be 34 6e 10 3e 50 b7 4a b8
       -0.15098098 -0.209848 0.14104539 -4.8331276e-05
0003e0 7a 91 f1 bd 96 c2 43 b8 e4 30 0f be 13 83 f9 be
       -0.117953256 -4.6672845e-05 -0.13983494 -0.48732814
0003f0 06 1a b3 3d da 0c 6e 3e ed fd 9d be 88 77 da bc
       0.08745198 0.2324709 -0.30857792 -0.026668325

controller.layers.2.bias f4 [32]
000000 aa 52 1d b5 5a 31 0f b8 4a 9c 25 36 f8 d4 ed b5
       -5.860735e-07 -3.413982e-05 2.4677888e-06 -1.7719858e-06
000010 23 2d 5e b7 f8 80 90 35 2c 22 63 b5 4d a1 a1 b5
       -1.324274e-05 1.0766371e-06 -8.4613816e-07 -1.204238e-06
000020 02 21 0a 35 1d 10 d9 b7 2a 69 02 b8 d4 2a 37 b4
       5.145704e-07 -2.587592e-05 -3.1092357e-05 -1.7058784e-07
000030 7e 44 11 3a 75 22 38 b6 11 8e 8b b5 86 5c d3 b4
       0.0005541517 -2.7438193e-06 -1.0397654e-06 -3.9369132e-07
000040 74 c6 8f 36 c1 b4 ef 34 34 77 56 34 bb ab 06 b5
       4.284835e-06 4.4648735e-07 1.9973669e-07 -5.016879e-07
000050 f3 ab 21 35 31 bc 1c b6 bf 94 13 36 e6 95 22 36
       6.0227393e-07 -2.3355353e-06 2.1991289e-06 2.4227134e-06
000060 45 11 4b b7 96 d3 d3 36 5a 11 4a b5 52 6d d5 36
       -1.2103764e-05 6.312922e-06 -7.5276114e-07 6.3606212e-06
000070 35 f5 a0 b7 c9 19 21 36 db 3f 52 b5 ab d6 44 33
       -1.918767e-05 2.4005878e-06 -7.832402e-07 4.5830046e-08

controller.layers.4.weight f4 [1, 32]
000000 f9 ef 46 bf e3 bf 91 3f f4 a4 a1 bf 1a 25 71 bf
       -0.7770992 1.1386684 -1.2628465 -0.9419724
000010 64 76 61 bf a7 12 3b bf 7d a9 97 bf 7c 61 65 bf
       -0.88071275 -0.73075336 -1.1848599 -0.89601874
000020 2e 53 0c 3f 3e 45 6f bf 4b fe 92 bf 9a 44 7a 3f
       0.5481442 -0.9346503 -1.1483854 0.9776093
000030 cf 64 7c bf a4 3c 85 3f 57 75 9b 3f b4 98 8e 3f
       -0.9859132 1.0409131 1.2145184 1.1140351
000040 b6 a5 85 3f f3 24 70 3f 14 06 aa bf 0f 7e 52 bf
       1.0441196 0.9380638 -1.3283105 -0.822236
000050 00 b5 90 bf 1d de 87 bf 55 e4 64 3f dd 30 a0 3f
       -1.1305237 -1.0614659 0.8941091 1.2514912
000060 f7 93 7b 3f e3 e6 8d 3f e6 60 2c bf 89 a4 88 3f
       0.9827265 1.1086086 -0.67335355 1.0675212
000070 cd bf 6d 3f 64 17 4d bf f9 eb 4a bf e5 7b 8e bf
       0.9287079 -0.80113816 -0.79266316 -1.113156

lyapunov.layers.0.weight f4 [128, 4]
000000 93 f3 7d 37 03 c4 1f 37 36 25 53 b6 da 3b 84 b7
       1.5136687e-05 9.522776e-06 -3.146311e-06 -1.5763497e-05
000010 db e1 83 b8 72 8b 0e 3a 25 13 7a 3c d2 9b 0c bf
       -6.2886356e-05 0.0005437649 0.0152633535 -0.5492526
000020 c3 f8 b5 be 10 68 cf b9 e5 90 8a 3e 9a e5 fa 3e
       -0.35541353 -0.0003955965 0.2706367 0.49003297
000030 97 bb 94 3a f6 f4 52 bf 21 35 08 bd 6e e8 90 3a
       0.001134741 -0.8240503 -0.033253793 0.0011055598
000040 dc b7 19 3f 97 7e f7 be 79 7c e2 bd 5a 86 a1 be
       0.6004617 -0.48338768 -0.110588975 -0.31547815
000050 6a 72 f6 39 f0 30 5e b7 be 24 24 3c da de 64 39
       0.00047006021 -1.3243625e-05 0.010018526 0.00021826793
000060 89 f9 95 35 47 05 f0 36 7b 18 1f 37 3b 36 33 37
       1.1173989e-06 7.1531717e-06 9.482838e-06 1.0681858e-05
000070 9b cf e1 b9 6c d7 80 39 70 49 5a ba 00 9f c6 39
       -0.00043070022 0.00024574564 -0.0008326983 0.00037883967
000080 2d 14 de 3c b5 9d b4 39 dd b5 b0 bc 81 b8 25 3e
       0.02710923 0.00034449776 -0.021571094 0.16183664
000090 31 41 86 3a 98 2e 9a 38 b1 cf 9b bd 0f fa 9e 3d
       0.0010242817 7.351971e-05 -0.07607973 0.07762539
0000a0 d5 88 8a 3a 06 8b 88 3a 7e ed 11 ba e9 46 15 3e
       0.0010569344 0.0010417409 -0.00055667 0.14577831
0000b0 97 45 58 3f c5 f7 27 3e 08 6d b2 3e 45 68 aa 3d
       0.84481186 0.1640311 0.3484881 0.08320669
0000c0 4d e1 b1 be fd 26 92 3a 64 49 2d bc 7b 59 ea b9
       -0.34742203 0.0011150535 -0.01057658 -0.00044698626
0000d0 9a 30 4d 3e c0 03 ef b8 c8 5d d2 bd a8 7a cb b9
       0.20038071 -0.000113971066 -0.102717936 -0.00038810563
0000e0 cb 20 e1 be 47 d0 00 bf c0 a8 37 3c 10 2d 96 3e
       -0.43970332 -0.50317806 0.011209667 0.29331255
0000f0 a6 f0 13 3d 15 96 7f bf 61 39 af 3e 38 63 93 3e
       0.036118172 -0.9983838 0.34223464 0.28786635
000100 37 06 12 b9 1d 56 68 bd cb 15 a1 b7 bd f0 4b 3e
       -0.0001392596 -0.05672275 -1.9202844e-05 0.19916053
000110 9e fc 19 b9 b1 a1 36 b9 3f 38 47 3d bf f6 de 39
       -0.00014685324 -0.00017417107 0.048637625 0.0004252698
000120 36 75 fa ba 06 79 16 3a 15 c4 5f 3d 81 c6 f9 be
       -0.0019108418 0.000574008 0.054630358 -0.4878426
000130 a5 82 26 3f b5 cc be 3f dc a9 c6 3d 00 f9 75 3e
       0.650431 1.4906222 0.09700367 0.24020767
000140 de cd a3 bc f6 0c 2b 3f 98 bc 94 3e 70 6f 77 bd
       -0.019995626 0.6681665 0.29050136 -0.06040901
000150 53 69 8b bd 0a 7b f2 b8 1c 26 a0 3e 27 8d 32 be
       -0.068071984 -0.00011562377 0.31279075 -0.17436658
000160 65 62 e6 bd 4f 55 14 3e 68 73 31 3d 32 76 48 be
       -0.11249236 0.14485668 0.04332295 -0.19576338
000170 9f cf fe 3e 10 ee bd 3e 9e 69 08 be f8 4b b8 b9
       0.49767777 0.3709569 -0.1332154 -0.00035151816
000180 f3 2c a4 b7 41 78 64 37 fd 2a 31 37 f6 f5 5b b7
       -1.9571255e-05 1.3617858e-05 1.0560031e-05 -1.3110684e-05
000190 fa 42 c5 bd d2 bd 20 bd e0 25 54 3c 80 c2 e6 b9
       -0.096319154 -0.039243527 0.012948483 -0.00044013932
0001a0 66 1b 18 3e 58 db a6 be c5 c9 47 be 1e dc 98 b8
       0.14854202 -0.3258922 -0.19510563 -7.288925e-05
0001b0 4f b8 ae be 6a 60 bd 3a 02 8b dc bd a2 12 7a ba
       -0.3412499 0.0014448289 -0.10768701 -0.00095395197
0001c0 81 45 8b 3b 48 82 f2 be 91 74 c9 3e 63 93 ca 3e
       0.004250229 -0.47365022 0.39346746 0.39565572
0001d0 b4 a7 c9 3a 72 e6 0d b9 ee 3a 57 3a 46 1f 56 3e
       0.0015385062 -0.00013532655 0.00082103803 0.20910367
0001e0 ba ed dd be 0a b8 4c 3f 72 a9 d2 be 5d a5 22 be
       -0.43345433 0.7996832 -0.41144902 -0.15883394
0001f0 e0 cf b7 ba 61 5c 22 3a ef 58 3a be d4 28 13 bf
       -0.0014023744 0.0006193575 -0.18197988 -0.57484174
000200 3b 42 6c 3a 83 d4 ac bf a2 fa 87 be 08 9b 08 bf
       0.00090125547 -1.3502353 -0.26558405 -0.5336156
000210 c9 65 ba 3e f3 19 8b bd df 26 8c 3d 1b bf 4b bd
       0.3640578 -0.06792059 0.068433516 -0.0497428
000220 1a d8 c8 b9 03 67 72 b9 79 8f b6 3a 4a f7 45 be
       -0.0003830798 -0.00023117293 0.0013928256 -0.19332615
000230 04 38 26 be a2 77 80 3f b4 88 85 3b 95 c3 b0 3d
       -0.16232306 1.0036509 0.004075134 0.08631054
000240 b2 22 17 b6 9a ed cf 36 85 db 15 b7 51 e9 19 b6
       -2.2520949e-06 6.196741e-06 -8.932203e-06 -2.2934585e-06
000250 50 82 d0 3d 29 23 6e be 58 54 90 3d da 56 21 3a
       0.10181105 -0.232556 0.07047337 0.00061546045
000260 61 1e a9 b6 20 a6 07 be 0c 11 a4 36 03 50 8f b5
       -5.040129e-06 -0.13246965 4.8895654e-06 -1.0677617e-06
000270 4e 2c a6 ba 51 aa 4f b8 f2 bf c1 39 a4 e9 c4 3b
       -0.0012677999 -4.9511265e-05 0.0003695484 0.0060092974
000280 09 cc 23 3f 98 e5 19 3b 1c 67 15 3f a2 dd f9 3e
       0.6398321 0.0023482796 0.5836046 0.48801905
000290 f9 2b 26 3e b0 8e 0a bf 5f 62 40 be 97 9c f5 be
       0.16227712 -0.54123974 -0.18787526 -0.4797103
0002a0 55 8e 2a 3f 19 4d a5 ba e4 01 25 be d9 e1 08 bf
       0.6662343 -0.0012611478 -0.16114002 -0.53469616
0002b0 b5 72 a0 3a 7e 6a f8 37 2f 0c 25 3c 1e 92 94 38
       0.0012241217 2.9613493e-05 0.010073706 7.0844064e-05
0002c0 d6 d7 b2 3d 04 fe ad bf ad e7 77 be 3f 6d 0b bf
       0.08732574 -1.3593144 -0.24209471 -0.5446357
0002d0 dd 77 8f b7 5d 22 e9 36 7c 1c c8 b7 dd b0 a4 b6
       -1.7102744e-05 6.9479415e-06 -2.3855122e-05 -4.9081705e-06
0002e0 02 1d a7 36 a7 5a 3d 37 20 07 cf b5 50 c5 d1 36
       4.980365e-06 1.12863845e-05 -1.5424775e-06 6.2516556e-06
0002f0 6f fc 38 39 47 2c 3e b9 b3 91 2d 3b a0 c5 10 38
       0.00017641646 -0.00018136307 0.0026484549 3.4516328e-05
000300 48 65 18 be 1d 13 65 bf 7e f9 97 3c 14 fd 9b bd
       -0.14882386 -0.8948229 0.018551584 -0.0761663
000310 40 5f 98 3e 07 63 aa 3f cc 6e 8a 3e fb 8f ea 3e
       0.2976017 1.3311471 0.27037656 0.45812973
000320 49 08 14 39 33 d8 01 3a 09 03 6e ba b3 47 70 3d
       0.00014117466 0.00049531757 -0.0009079432 0.058662128
000330 43 e1 c0 37 8f c7 22 37 8d c4 0a b7 39 29 86 36
       2.299308e-05 9.702416e-06 -8.271204e-06 3.99831e-06
000340 30 08 9f 37 eb 0a 60 b7 6d 40 a3 b5 04 41 57 36
       1.895809e-05 -1.33539825e-05 -1.2163197e-06 3.207534e-06
000350 e0 a1 78 bb fe e1 40 3e 1f b0 1b 3a bf ce 73 be
       -0.0037938282 0.18836209 0.0005939025 -0.23809336
000360 14 e8 ac 3e 90 22 12 bd 5b b4 f9 3b b5 f2 02 be
       0.33770812 -0.035677493 0.007620377 -0.12787898
000370 fc 6b af 3a 5e df 8c be 0a ed 02 3b 60 6f 47 be
       0.0013383622 -0.27514166 0.0019977712 -0.1947608
000380 6c 9e 56 be 78 a2 cd b7 60 96 21 3f cd 72 87 3e
       -0.2095887 -2.451356e-05 0.6312008 0.26454774
000390 bf d7 08 bc b1 17 ba 36 b1 ab 21 bc 03 8b 27 3e
       -0.008352219 5.54599e-06 -0.009867595 0.16361623
0003a0 92 82 d6 b9 18 38 2e 3a 5f 7f 0e bd 7f 01 35 b9
       -0.00040914543 0.0006645932 -0.03478944 -0.00017262062
0003b0 8b dd 41 ba 3e 0f 45 3f 24 35 ba 3d 1f 02 d0 bd
       -0.0007395378 0.7697638 0.09092167 -0.101566546
0003c0 92 22 56 ba f7 7f 17 3a e6 68 b8 bd 63 d0 01 3d
       -0.00081686035 0.0005779261 -0.09004383 0.031692874
0003d0 cb f7 bd b9 ab a3 b7 38 a9 3f 6b bb 7a c4 90 b7
       -0.0003623351 8.7566055e-05 -0.0035896099 -1.725763e-05
0003e0 f8 9b 32 36 34 4e db b4 69 58 0d b7 d1 64 9a b6
       2.6614853e-06 -4.084883e-07 -8.4248395e-06 -4.601294e-06
0003f0 30 da 30 37 28 01 a1 37 a9 dd 4d 37 50 f7 79 b6
       1.0541218e-05 1.9193234e-05 1.22705615e-05 -3.7247846e-06

lyapunov.layers.0.bias f4 [128]
000000 5d 52 35 b9 88 3b 95 be 98 eb b6 3e f4 2e 35 3d
       -0.00017292188 -0.2914698 0.3572662 0.04423423
000010 a0 ee f6 3e 7a 82 1a b8 52 32 00 37 df 95 e9 37
       0.4822893 -3.6837977e-05 7.641111e-06 2.7845554e-05
000020 41 1f 4a bf 7a 71 15 3f ed bf 3d 3c df e8 d8 3d
       -0.7895394 0.58376276 0.011581403 0.10591292
000030 df fe 3f bd f8 51 19 3f 1e 6e af be 73 2c 88 be
       -0.046873923 0.598907 -0.342637 -0.26596412
000040 85 9a c3 b8 ad e7 79 be 07 e0 cc 38 6a 30 5d 3e
       -9.327106e-05 -0.24404784 9.7692064e-05 0.216005
000050 6f ec 43 3e d3 ec 67 3e 55 22 b4 3d 86 8a 37 3c
       0.19133161 0.22648935 0.08795611 0.01120246
000060 0e 8f ed b7 11 66 9f bd c9 d9 83 3e e0 19 b5 bd
       -2.8319217e-05 -0.077831395 0.25752094 -0.08842826
000070 ef 9c e0 3e a3 59 50 3f e5 be 72 3e ab 03 ac be
       0.4386973 0.81386775 0.23705633 -0.33596548
000080 3c ba 43 bb 90 83 34 3d 8c b4 43 3f 0e 2f 8f be
       -0.0029865643 0.04407078 0.7644737 -0.27965587
000090 19 08 52 b6 8e 08 c9 3e 7e fb 51 b8 cf e2 a4 bc
       -3.1297152e-06 0.3926434 -5.0063703e-05 -0.020127682
0000a0 01 c1 b8 3e a7 04 c6 be b5 a3 65 be a5 0a 58 3c
       0.3608475 -0.38675424 -0.2242573 0.013186132
0000b0 69 5c 39 be 3c 16 69 37 d0 7f dd b7 94 9c 4d bf
       -0.18101658 1.3893059e-05 -2.640477e-05 -0.80317044
0000c0 f7 8c f5 bd 45 50 24 3d 27 f9 3e be b3 f4 2b 39
       -0.119897775 0.040115613 -0.18649732 0.00016398988
0000d0 5b b7 47 38 f0 1a 1c bd b4 57 2f 3a d3 97 8a 3e
       4.761606e-05 -0.038111627 0.0006688789 0.27068958
0000e0 5d 66 43 3e d0 bb 1c 3f dc 1a 0b 3e 75 89 e4 3d
       0.19082017 0.6122408 0.13584465 0.1115903
0000f0 c1 b8 36 bf 01 e9 2d 3f 69 f5 01 38 0b be 03 39
       -0.7137566 0.6793366 3.0984553e-05 0.0001256393
000100 74 6b c6 3d 53 ad 2d bf f7 1b b4 be 25 0d f7 bc
       0.09688464 -0.67842597 -0.35177585 -0.030157635
000110 17 9e 2e 3f 54 9e bb be 10 eb f7 bd 4e eb 54 be
       0.68209976 -0.36644232 -0.121053815 -0.20792887
000120 75 4e 07 be 26 c2 c3 be 50 25 cc 3e 11 03 a2 b6
       -0.13213523 -0.3823406 0.39872217 -4.828333e-06
000130 ca 7f d6 3b db 8a a9 3e 3d 89 6e 37 47 03 13 3f
       0.0065459954 0.3311375 1.4217859e-05 0.57426876
000140 43 0d 3b bf 4c 78 d8 3d ca 76 84 38 57 e5 04 3f
       -0.7306711 0.1056982 6.316377e-05 0.51912445
000150 a4 06 a9 3e cc 77 ff 3e f8 2d 8c bd 6a 42 fa be
       0.3301288 0.49896085 -0.06844705 -0.48878795
000160 9b b5 81 be f4 95 c6 3e 9f 97 8c 38 13 91 c7 bd
       -0.25333866 0.3878628 6.703962e-05 -0.097444676
000170 7f cc 65 3e ba 85 0c 38 da 6a f3 38 c6 11 db 3e
       0.2244129 3.3503144e-05 0.000116070456 0.42786998
000180 86 6d 12 3a 62 b3 68 39 38 10 0a b7 1a 73 c3 3e
       0.0005585778 0.0002219207 -8.229217e-06 0.38173753
000190 cd 9e dd be 61 60 18 b9 af 5f af 3e d1 eb 0f bd
       -0.43285218 -0.00014531754 0.34252688 -0.035137
0001a0 8f f0 4d 36 bd 8a 54 3d e7 a6 ba be 7d ae 2d bd
       3.0687404e-06 0.051890124 -0.3645546 -0.042402733
0001b0 a9 e3 d1 3e 6d 2c f8 38 4b c3 05 3e 8c 78 6a be
       0.40994003 0.000118338365 0.1306278 -0.22897547
0001c0 40 29 dc 3e 7f 45 ae 3e 98 6e 71 3e e7 ab 98 3e
       0.4300022 0.34037396 0.23577344 0.2981865
0001d0 f1 85 55 be 6f 16 1e 3f c3 41 2c bf 29 83 03 3e
       -0.20851876 0.6175298 -0.67287844 0.12843002
0001e0 78 95 97 3e 6f d3 ca be 31 4b bb 3e f7 42 d5 38
       0.29606223 -0.39614436 0.36580804 0.00010169105
0001f0 aa dd 8e 3e 02 a0 40 3d d5 f7 ef 3e ba 70 19 3f
       0.2790349 0.047027595 0.46868768 0.5993763

lyapunov.layers.2.weight f4 [128, 128]
000000 56 c9 3f b9 a6 91 17 3d a6 86 61 3d 44 4a f2 bc
       -0.00018290183 0.037004136 0.05506005 -0.029576428
000010 2c e7 4c be eb 50 b6 37 44 0b 87 b7 ef a0 03 37
       -0.2001006 2.1733771e-05 -1.60985e-05 7.845679e-06
000020 72 8a 82 3c ac 93 14 bc d5 12 3a 3c 69 ce 8e 3d
       0.015935156 -0.009068411 0.011357029 0.06972963
000030 01 7c 3b 3d 0b fe 55 bc c0 50 ae 3c 55 de 9a 3d
       0.045772556 -0.013061057 0.021278739 0.07561938
000040 b9 c0 17 39 36 3f dd 38 94 61 9c 3d b5 b7 b6 3d
       0.00014472277 0.00010549875 0.07635799 0.08921758
000050 bb 7c 73 3d a0 20 98 3d f0 04 93 3d 1b 8f 07 b9
       0.059445124 0.07428098 0.07178676 -0.00012927914
000060 fd 93 23 37 85 36 e8 bb 4c 87 44 be 11 74 a0 bc
       9.750013e-06 -0.0070865774 -0.19192237 -0.019586595
000070 1a 57 be b9 e4 2a ac bc b4 fa 99 bc a4 bb df 3c
       -0.0003630452 -0.021016546 -0.018796302 0.027311154
000080 fd 12 9b bd 6e c0 43 bc 8c 84 a0 bc 28 56 2d 3e
       -0.07571981 -0.011947734 -0.019594453 0.16927397
000090 d5 2f 35 b6 0f 9f ab bd e9 5c 78 b8 0f b2 c0 38
       -2.6998944e-06 -0.083799474 -5.9214337e-05 9.1884394e-05
0000a0 cf f6 fa 3d 57 ef d4 bc 74 86 17 bd 39 5a af b8
       0.12254106 -0.025993032 -0.03699346 -8.3614555e-05
0000b0 f8 04 84 be 15 76 b6 b5 4a d6 df b7 ca 3c e6 38
       -0.2578504 -1.3594423e-06 -2.6683458e-05 0.000109785775
0000c0 27 54 36 bc ad 99 b1 3d eb 1b eb 3b ea 64 1e b8
       -0.011128462 0.086718895 0.007174959 -3.776412e-05
0000d0 d9 55 9b 37 ee fb ab 38 af 2c 29 ba 2e 9f 91 bc
       1.8517416e-05 8.200841e-05 -0.0006453497 -0.017776098
0000e0 e2 7d 85 3d 3f e2 20 bc a2 65 8e 3c f6 06 3a bb
       0.06518151 -0.009819566 0.017382447 -0.0028385497
0000f0 61 b7 30 3b 24 43 e6 b8 b0 99 3f b8 35 b3 9f b7
       0.002696477 -0.000109797606 -4.568108e-05 -1.9037727e-05
000100 aa 3e 6b bb b6 3b a7 3c 38 a7 90 3c f5 2b 95 3c
       -0.0035895505 0.020414215 0.017657861 0.018209437
000110 22 c5 d7 bb 62 50 af 3d 0d ff ce 38 e1 5d 10 3c
       -0.0065847794 0.08560254 9.8703524e-05 0.008811445
000120 f7 21 de 38 3b 47 f8 bb 1d ea 2f 3b 21 5e ff 35
       0.00010592111 -0.0075768507 0.0026842423 1.9026376e-06
000130 70 ae a0 38 f4 5d dd bc 2f 2e 05 b7 54 68 e6 b8
       7.661886e-05 -0.02702234 -7.938171e-06 -0.00010986687
000140 f5 5e e6 38 25 f8 e5 bd 15 66 20 38 8b 70 cd 3b
       0.00010984942 -0.112289704 3.8242044e-05 0.0062695197
000150 22 77 66 3d ca 83 00 3d dc 55 45 bc 36 b6 a7 3d
       0.056265958 0.031375684 -0.012044396 0.08189051
000160 fb ca 64 3d ee 66 89 bd 47 7f 28 37 20 0f 77 bd
       0.05585764 -0.067090854 1.0043214e-05 -0.06031716
000170 31 05 8c 3d 85 be ed 37 50 55 fa 39 eb 24 2d bd
       0.06836928 2.834132e-05 0.0004774728 -0.042271536
000180 49 f8 aa 38 3b ba 47 ba c4 69 80 b7 17 7a aa 3d
       8.1524784e-05 -0.0007618998 -1.530804e-05 0.08324068
000190 26 ea eb bb 88 05 03 ba 6d 8d 08 3e 7c bc ce 38
       -0.0071995435 -0.00049980776 0.133352 9.8579534e-05
0001a0 d4 1d 42 3a 93 57 95 3c 4e 75 51 3d 6a dc 3b 3b
       0.00074049574 0.018230235 0.05113726 0.0028665313
0001b0 26 c6 6a be 21 50 20 b8 98 39 ad be 40 70 d2 bc
       -0.2292715 -3.82216e-05 -0.33833003 -0.02568829
0001c0 51 fc 6c bd bb cc 0e be e7 f8 dc b8 cc 7f 1c be
       -0.057857815 -0.13945286 -0.00010536779 -0.15283126
0001d0 8a 64 b3 3d 36 09 9b bc ec 76 e6 38 6d c8 3f bc
       0.08759411 -0.01892529 0.000109894056 -0.0117055
0001e0 4c 58 8c bc 22 75 1d 3d 8e b6 aa be 27 29 01 3e
       -0.017131947 0.038441785 -0.33342403 0.12613355
0001f0 28 b3 42 bd 13 65 07 b9 67 25 cb bd d9 aa e6 b8
       -0.047534138 -0.00012912256 -0.09919243 -0.000109990775
000200 d7 0b 4c b9 4e 2b 95 3b ad 7f ba bb 48 ec d5 b8
       -0.00019459367 0.0045522815 -0.0056914897 -0.00010200642
000210 09 44 d6 bc 4d 14 15 37 ad 4b d4 b7 3a b4 c1 37
       -0.026155489 8.885819e-06 -2.5307609e-05 2.3091317e-05
000220 d3 cb c5 3c 3d 92 6b bc 61 93 84 b8 e3 65 c6 b8
       0.024145043 -0.014378128 -6.321702e-05 -9.4603536e-05
000230 60 86 c5 38 38 15 6e bc 43 60 01 3b 3b 1d 86 3c
       9.418721e-05 -0.014531426 0.0019741214 0.01637136
000240 53 c4 83 b8 95 24 c6 38 19 1a b7 37 6d af 41 bd
       -6.283135e-05 9.44819e-05 2.1827453e-05 -0.04728644
000250 3f c2 c6 b8 fc df c7 b8 1e 80 b7 b8 31 00 c5 b8
       -9.477557e-05 -9.53078e-05 -8.749984e-05 -9.393728e-05
000260 83 0f b5 36 d4 74 c1 38 a2 82 c5 b8 e5 e7 b8 38
       5.396026e-06 9.224718e-05 -9.418024e-05 8.8169974e-05
000270 2b d9 75 3c 86 36 9f bc 71 3f b3 bb ca 90 c5 38
       0.01500539 -0.019435178 -0.0054702093 9.420661e-05
000280 9b cb 4a 38 db 7d b1 b8 0e cc 9d 3c 47 79 87 3c
       4.8350175e-05 -8.46346e-05 0.01926234 0.016537322
000290 f1 16 63 37 ff 73 30 3b 7b a8 87 38 db a9 9f 38
       1.3535596e-05 0.0026924608 6.4686836e-05 7.613349e-05
0002a0 81 10 af b8 c0 4a 8a 3c 6b ab b9 38 ad 59 8a b8
       -8.347724e-05 0.016881347 8.8534165e-05 -6.597056e-05
0002b0 4e bf 30 3b 41 dd 33 b7 d0 dd 10 38 7d a3 0c be
       0.0026969495 -1.0720746e-05 3.4538854e-05 -0.13734241
0002c0 77 8b c7 38 2b a7 f0 b8 ce 6a c4 38 bf bf 49 b8
       9.515037e-05 -0.00011475229 9.365902e-05 -4.8100712e-05
0002d0 97 18 af 37 aa c8 c1 38 c7 e4 c4 b7 c2 7d b1 ba
       2.0873076e-05 9.240334e-05 -2.3471554e-05 -0.0013541507
0002e0 c1 3c b2 3b 3c d7 b6 bc 01 98 cb b8 82 ee be b8
       0.0054393713 -0.022319429 -9.708107e-05 -9.1043315e-05
0002f0 03 90 b2 3c 42 c5 0f 3d d2 a6 19 b8 79 e3 cf b8
       0.021797186 0.03510023 -3.6633406e-05 -9.912899e-05
000300 7e 8e c2 b8 e5 f0 d1 3c 7e f2 31 3b 4d 74 70 38
       -9.277182e-05 0.025627563 0.0027152593 5.7328773e-05
000310 1f 0b c6 b8 ec c8 a5 3b 62 2d c6 38 e5 f7 b8 38
       -9.443447e-05 0.005059352 9.449829e-05 8.819978e-05
000320 46 b8 c6 38 3d 50 c7 38 ca 1b 74 bb c8 89 a8 b7
       9.475699e-05 9.504005e-05 -0.003724801 -2.009132e-05
000330 ee cd 3f 37 bf 57 8c 3a 5e 3d cd b6 23 28 c4 3b
       1.1432434e-05 0.0010707303 -6.11662e-06 0.00598623
000340 38 ee 16 bd 5d b4 ba b8 3a 9b 9e 37 fe 03 6f bc
       -0.036848277 -8.9027664e-05 1.890735e-05 -0.014588354
000350 bc 0d a4 bb e9 0d 03 bd 77 7f 9e 38 3c 26 15 3d
       -0.00500652 -0.031995688 7.557769e-05 0.036413416
000360 12 32 c2 b9 81 f1 9e bc 6f f9 a7 38 1f 9e bc 38
       -0.0003703987 -0.019402267 8.009641e-05 8.993991e-05
000370 4e 9d 23 3c 07 b5 d3 38 bb de 05 39 06 48 50 3b
       0.009986235 0.00010094983 0.00012766842 0.003178121
000380 cd 23 41 37 d5 df 44 38 63 70 15 b8 80 c9 02 bd
       1.1512032e-05 4.69385e-05 -3.5629037e-05 -0.031930447
000390 8b 69 62 3c 88 aa 4b b9 76 67 99 ba 0e 8e 99 38
       0.013819109 -0.00019423116 -0.0011703807 7.322068e-05
0003a0 53 98 9b 39 bb c3 c7 b8 fb 0b 85 3c 87 f1 ac 38
       0.00029677394 -9.525517e-05 0.016241064 8.246587e-05
0003b0 7b 7b 37 bd f5 ef 07 b8 4e d5 e7 b8 91 aa c8 38
       -0.044795495 -3.2409986e-05 -0.000110546694 9.5685136e-05
0003c0 d0 4a 87 3b 0f 4c 8c 3b 07 f5 6f 3b 77 62 ed 3b
       0.0041287914 0.004281528 0.0036614554 0.007244404
0003d0 7a 56 c5 38 c2 a1 d3 3c 35 fb e9 bc 83 ee bb b8
       9.4097995e-05 0.025833968 -0.028562168 -8.961281e-05
0003e0 26 fa c5 b8 b3 a1 a9 3b 0e a2 07 b8 8e 92 4b 38
       -9.440286e-05 0.0051767468 -3.2337433e-05 4.853546e-05
0003f0 c0 6f bc b8 e8 94 bd b8 b4 24 00 bc b6 cc 49 3d
       -8.9853536e-05 -9.039958e-05 -0.007821251 0.049267493

lyapunov.layers.2.bias f4 [128]
000000 d1 e2 22 b9 4a 95 34 3e df 61 58 3e d8 14 99 3e
       -0.0001553402 0.17635074 0.21131085 0.29898715
000010 b1 7b 0d 3e 57 58 8c be e6 b0 01 b9 15 d7 09 bc
       0.13816716 -0.27411148 -0.00012368298 -0.008413096
000020 2e 32 ef bd d2 e3 68 b8 76 8c 58 38 fe 53 5a 3e
       -0.11679493 -5.5525285e-05 5.1629228e-05 0.21321103
000030 86 54 94 3d 8a 30 4d be ae 28 17 bd ef 22 d8 b8
       0.07242684 -0.20038047 -0.03690403 -0.000103061895
000040 3a 89 82 be 73 b9 3c 38 56 30 84 be c2 f2 59 bc
       -0.2549532 4.4995406e-05 -0.25818127 -0.013302507
000050 43 44 ba bb 26 42 73 be ec 29 54 be 55 c0 87 3e
       -0.005684407 -0.23755702 -0.20719117 0.26513925
000060 31 62 4e be e5 66 7d 3e c8 7c f7 36 17 7f 78 3e
       -0.20154645 0.24746282 7.3757e-06 0.24267231
000070 a2 27 f4 bd cf 88 73 3e 4a 4b bf b8 59 72 c4 3c
       -0.11921622 0.23782657 -9.1216134e-05 0.023980306
000080 22 2d 3c 3e d4 a6 61 3e 48 41 92 be 42 8b ab 3c
       0.18376592 0.22036296 -0.2856543 0.020940427
000090 d4 46 67 3d c8 d4 6a be 87 8b 81 be 1b fd 92 be
       0.05646403 -0.22932732 -0.25301763 -0.2870873
0000a0 5b aa b5 bc a5 b8 d2 bc 73 8b a0 b8 98 d1 d6 3d
       -0.022175958 -0.025722811 -7.655369e-05 0.104891956
0000b0 db c2 72 3e 31 00 87 be e4 73 b6 b8 62 5e 15 3e
       0.23707144 -0.26367334 -8.7000226e-05 0.14586785
0000c0 da 5b 92 be ce e4 86 3c 30 5a 0f be c6 6f 90 38
       -0.28585702 0.016466524 -0.13999248 6.8872745e-05
0000d0 35 c7 35 3e 23 dc 52 bc 17 64 89 be 9b 87 18 be
       0.17751773 -0.0128698675 -0.26834175 -0.1489548
0000e0 c6 d6 5e b8 5a 02 74 b9 58 9c d7 39 ca ab 86 be
       -5.3128948e-05 -0.0002327053 0.0004112448 -0.2630294
0000f0 83 1d 91 3e da 35 3b be 54 d3 b3 bc e2 69 45 3e
       0.28342828 -0.18282261 -0.021951355 0.19278672
000100 31 00 7e be 65 63 5e be 8f 16 c9 bd ce 15 47 be
       -0.2480476 -0.21717604 -0.09818756 -0.19441912
000110 96 ce f1 b9 19 61 c8 3c 77 06 3e 39 29 db 94 37
       -0.0004612102 0.024460362 0.0001812222 1.774503e-05
000120 bd 91 bb 38 d7 72 b1 bc 87 8b 17 b7 83 a4 79 be
       8.944001e-05 -0.021661205 -9.032788e-06 -0.24379162
000130 a6 f5 0e be ed ad 1f be 11 c8 84 be 18 f1 89 3e
       -0.13960895 -0.15593691 -0.2593389 0.26941752
000140 0d c1 18 3e 25 7d ca 3c 9a 6d bb bd f4 ea 63 3b
       0.14917393 0.024717877 -0.09151764 0.0034777494
000150 b1 1d c1 b8 3e c9 c7 b7 92 ce 5b 3c 05 c5 c4 bc
       -9.2084876e-05 -2.381636e-05 0.013415949 -0.024019727
000160 73 f3 80 3a 10 dc b6 b6 a3 38 83 35 26 ba 31 38
       0.0009838179 -5.4496413e-06 9.776744e-07 4.2373453e-05
000170 11 38 93 be 66 e9 21 36 44 26 1a 3e 4e 1d 6d 38
       -0.28753713 2.4126725e-06 0.1505366 5.6532495e-05
000180 bc 0e 5b 3e 28 a6 b7 bc 26 f3 67 3e da 55 dc b7
       0.2139234 -0.022418097 0.22651348 -2.6266021e-05
000190 bb 3b 80 3e 12 19 89 3e c9 28 67 bc bb 4b 18 be
       0.2504557 0.2677694 -0.014108845 -0.14872639
0001a0 52 fd 0e be 55 4e 94 be 20 bc 49 3d 09 43 0e 3c
       -0.13963822 -0.28966013 0.049251676 0.008682975
0001b0 20 e4 76 be 1b 4d fb bd 86 a8 7a 3e 18 19 3a 3d
       -0.2411046 -0.12270566 0.24478349 0.045434088
0001c0 c9 8e 29 be c0 d0 1c 3e 40 a6 1d bd 24 a3 8f bb
       -0.16558374 0.15314007 -0.038488626 -0.0043834615
0001d0 42 da 66 be 52 0a 0e be 06 27 98 3c f6 e3 88 be
       -0.22544196 -0.13871124 0.018573295 -0.2673642
0001e0 3f 1a 3c 3e ec 3f f0 bd 4d d7 35 3e 1d 89 61 3e
       0.18369387 -0.11730942 0.17757912 0.22024961
0001f0 68 7f 5a 39 60 8a e7 bb c2 46 82 be 23 98 cb bc
       0.00020837563 -0.007066056 -0.2544461 -0.024852818

lyapunov.layers.4.weight f4 [1, 128]
000000 e3 6d d1 3e 53 06 cb 3e 73 1e de 3e 1f af e2 3e
       0.4090415 0.39653262 0.43382606 0.44274232
000010 6b 61 a9 3e 81 91 df be ea 3c 01 38 11 f1 b6 be
       0.33082137 -0.43665698 3.0812727e-05 -0.35730794
000020 7d 8b 98 bd 4a 56 1a 38 ae 79 79 38 fd 57 93 3e
       -0.0744848 3.6796824e-05 5.947955e-05 0.28778067
000030 a5 c6 bc 3e 10 a0 df be 6a 1e 0e bf b5 59 d6 38
       0.36870304 -0.43676805 -0.5551516 0.000102210244
000040 1b 86 d4 be 97 5c 18 b9 50 a9 a0 be 1e 00 08 bf
       -0.41508564 -0.00014530342 -0.31379175 -0.5312518
000050 b9 31 46 3f 2e b8 7a be 08 00 54 be 21 e9 c8 3e
       0.7741962 -0.24484321 -0.20703137 0.39240363
000060 f6 26 e8 be 5e 62 ca 3e a6 1f 2b 38 fd 57 dc 3e
       -0.45342225 0.39528173 4.0799052e-05 0.4303588
000070 f6 16 3c be df 56 dd 3e 8d 50 0d 3f 4c d2 e6 be
       -0.18368134 0.4323034 0.55201036 -0.4508232
000080 4a b7 d4 3e ad 5d c8 3e 09 74 ac be 1b ae fe be
       0.41546088 0.3913397 -0.33682278 -0.49742207
000090 04 15 14 3d 6e ef d5 be 54 06 bf be 9a 53 e8 be
       0.036152855 -0.41784233 -0.37309515 -0.45376283
0000a0 5c c9 07 bf 55 5f 0b bf 0e 4c b6 38 32 aa 61 3d
       -0.53041625 -0.5444234 8.6926026e-05 0.05509395
0000b0 57 08 c9 3e 28 4d 9e be a2 d0 b4 38 ca ad d6 3e
       0.39264175 -0.3091824 8.62193e-05 0.41929466
0000c0 64 b4 c1 be 2c 09 02 3f 11 d1 e0 be 54 72 c6 b8
       -0.3783294 0.50795245 -0.43909505 -9.462671e-05
0000d0 c0 2a 23 3e 2f 6c e6 be d3 82 95 be cf 04 ce be
       0.15934277 -0.45004413 -0.29201373 -0.40238044
0000e0 a1 1b 94 38 27 99 52 39 32 06 aa b9 ec 24 d9 be
       7.062336e-05 0.00020084214 -0.00032429543 -0.42410982
0000f0 22 3f e3 3e 0e 91 d7 be cc 40 1c 3f 3e 66 b1 3e
       0.44384104 -0.42102855 0.6103637 0.34648317
000100 27 48 b6 be 24 3b 4d be a9 7e 47 be c4 ee a7 be
       -0.35601923 -0.20042092 -0.19481911 -0.3279935
000110 7d 70 75 bf 13 cf 1a 3f 3f 4b 5f b9 c1 20 d7 b5
       -0.9587477 0.6047222 -0.00021294969 -1.6028281e-06
000120 21 7b 6d b7 fa 9b 24 3f 99 e5 7d b8 33 90 d6 be
       -1.4154969e-05 0.643005 -6.053373e-05 -0.4190689
000130 c5 e5 c0 be 8b a5 b0 be 0d 68 eb be d7 14 ca 3e
       -0.376753 -0.345013 -0.45977822 0.39469025
000140 50 6f a3 3e 5f a8 13 3f e7 d5 e4 be ca 04 43 bf
       0.31920862 0.5767879 -0.44694445 -0.7617918
000150 f5 db 92 3f f8 4c 0d 38 87 23 08 3f 39 a9 f3 be
       1.1473376 3.3688702e-05 0.5317921 -0.47590044
000160 35 47 f9 3e 87 5a 3d 38 9b 09 91 36 de 7b f2 b8
       0.4868714 4.514542e-05 4.322455e-06 -0.00011562531
000170 bc 6e c3 be 8c 50 76 b8 0a 09 cf 3e df 28 04 b9
       -0.3817042 -5.8725986e-05 0.40436584 -0.00012603727
000180 c8 ea c3 3e d5 97 cb be 04 c7 ae 3e 6e ca 6c 38
       0.3826506 -0.39764276 0.34136212 5.6455312e-05
000190 d3 fb 98 3e 48 44 d4 3e 8d 00 19 bf dd 2c a3 be
       0.29879627 0.41458344 -0.59766465 -0.31870165
0001a0 67 86 e3 be 4d c4 e4 be 08 83 00 bf c1 49 08 bf
       -0.44438478 -0.44681016 -0.5019994 -0.5323754
0001b0 51 78 a8 be 6e 8d 9a bd 5c 88 87 3e bd fb 2f bf
       -0.32904294 -0.07546507 0.2647122 -0.687435
0001c0 81 fc df be 38 48 df 3e a7 c7 00 bf 8b 5c 19 3f
       -0.43747333 0.43609786 -0.50304645 0.59906834
0001d0 ef 8d db be 72 f7 50 be 61 a8 11 3f 8e 12 ad be
       -0.42881724 -0.20406893 0.5689755 -0.3380322
0001e0 d7 16 e0 3e 01 93 c1 be 0f 9e b3 3e 31 31 d7 3e
       0.43767425 -0.37807468 0.35081527 0.42029718
0001f0 13 77 a4 b9 76 8c ea 3e b9 16 89 be 87 a8 fb be
       -0.00031369235 0.45810288 -0.2677515 -0.49152014
